code/model.ckpt (torch_old, 119148 bytes, 14 tensors)

layer1.0.weight f4 [16, 1, 5, 5]
000000 b7 9f f2 3c a9 0f e1 3d b9 75 3f 3e c4 a0 d0 bc
       0.029617174 0.10989315 0.18697251 -0.025467284
000010 e5 dc 05 bc a4 1b c5 bd be 26 dc bd d5 d9 9b 3d
       -0.008170341 -0.09624413 -0.10749577 0.076099075
000020 61 bd c7 3d 21 89 24 3e 41 08 30 ba a3 55 4d be
       0.09752918 0.16067936 -0.0006715097 -0.20052199
000030 b0 e7 e7 3d 86 f4 eb 3d 28 74 2d 3e 5c 32 7b 3c
       0.11323488 0.115212485 0.16938841 0.015331831
000040 c6 ab e5 3c 37 60 51 be 0d dc 3a be a4 28 25 be
       0.02803601 -0.2044686 -0.18248005 -0.16128784
000050 89 d2 84 3d 25 3c e5 bb cc 8d 85 bd b5 2c dd bd
       0.06485469 -0.006995695 -0.06521186 -0.10799543
000060 e5 a5 02 be e9 65 af bd 3f d4 36 3d 4e dd 3a bc
       -0.12758596 -0.0856436 0.044636007 -0.011405302
000070 2a be 10 3e 30 01 31 be 3e d2 36 be 57 33 81 bd
       0.14135042 -0.17285609 -0.17853639 -0.063086204
000080 2d f1 40 bc 5a 2d 1d 3c f8 cd 01 3e fa 2d f1 bd
       -0.011776251 0.009593332 0.12676227 -0.117763475
000090 c1 17 4c be d3 21 17 bd 4f d5 0e 3e 98 be ac 3d
       -0.19930936 -0.03689749 0.13948558 0.084347904
0000a0 7f 3b 2e 3c 0c a7 84 be 82 4d 07 be 32 33 0f be
       0.010634302 -0.25908697 -0.1321316 -0.13984373
0000b0 d3 9f 1a 3e 11 ce 75 3e 24 58 eb bc 33 c3 0d be
       0.1510003 0.2400439 -0.028728552 -0.13843994
0000c0 f1 7c 90 bd 79 2d 8e bd 8f 53 ba 3d 45 21 38 bd
       -0.07055081 -0.06942267 0.09097969 -0.044953603
0000d0 73 13 d2 3c a3 47 20 3e 1e 8a 5f 3e 0f a5 ec bc
       0.02564404 0.15652327 0.21830031 -0.0288873
0000e0 a2 79 09 3e 19 2d 0b 3e 65 16 da bd 67 6e 12 be
       0.13425305 0.13591422 -0.10648803 -0.14299928
0000f0 aa 53 1c be 7e 5e f1 bd b7 44 99 be 61 ff 05 be
       -0.1526629 -0.11785601 -0.29935238 -0.130857
000100 9a d9 57 bd 26 3d d9 3d 7f c5 01 3e 84 7c f5 3d
       -0.052697755 0.10607366 0.12672995 0.1198664
000110 22 6a 1f be 58 d0 67 3d 53 71 c3 3c 55 3e fd bd
       -0.1556783 0.056595176 0.023857748 -0.123654045
000120 a6 cc 8e 3c 23 98 3b 3e df b8 e5 bc 51 7d 8b bd
       0.017431568 0.18319754 -0.028042255 -0.068110116
000130 2d 45 82 be ad 36 54 bd 51 7d 2f 3b 90 12 3f 3e
       -0.25443402 -0.051809955 0.0026777575 0.18659425
000140 47 a1 5b be 6c aa 33 3e 68 f7 41 3e 53 0b c6 bd
       -0.21448241 0.1754548 0.18942034 -0.09670129
000150 0d 0e e2 3d c1 77 6d bd 5b e7 67 3e 2a 78 93 3d
       0.11037836 -0.057975534 0.22646849 0.07200654
000160 b0 d2 13 be 58 14 d8 3d eb 4f 60 3e 53 a1 89 bd
       -0.1443584 0.10550755 0.21905486 -0.06720223
000170 15 06 63 be 30 3d 85 3a 74 69 84 bc 32 6b 4a bd
       -0.22170289 0.001016533 -0.016163565 -0.049418636
000180 cf 5a 4d 3c f8 a0 12 3d 72 56 b2 3c 6d ef fd bd
       0.0125338575 0.035798043 0.021769736 -0.123991825
000190 d8 00 2c be b4 02 b6 3d f4 bb 4f 3d e8 7a e5 bd
       -0.16797197 0.08887234 0.050716355 -0.11205083
0001a0 50 02 9a 3d d7 d0 c5 3c e0 87 ba bd 4c dd 26 be
       0.07519972 0.024147434 -0.09107947 -0.16295356
0001b0 db ba 92 3d 33 4e 0f 3e 3e 4c 03 be 43 bf 56 3e
       0.07164546 0.13994674 -0.12822053 0.20971398
0001c0 d2 58 4b be fc e2 3f be 8a 27 a2 bd b0 4d 01 bd
       -0.19858101 -0.18738931 -0.07917698 -0.03156823
0001d0 42 25 42 3e 31 e0 c8 bc 7e 76 01 be 24 7a d8 bc
       0.18959525 -0.024520965 -0.12642857 -0.026425429
0001e0 70 36 32 3e 1d 42 18 bb f4 be 10 be 9b a9 35 be
       0.17403579 -0.0023232766 -0.14135343 -0.1774048
0001f0 4c a0 43 3e 81 66 4a 3e e3 00 9f 3d d0 88 ea bd
       0.19104117 0.19765665 0.07763841 -0.11451876
000200 3c 7e 17 be aa 85 06 be e3 60 59 3a 39 4d 87 be
       -0.14794248 -0.13136926 0.00082923303 -0.26426104
000210 f4 bc 47 be ab 57 10 bd 15 47 0a 3d e8 1b 17 be
       -0.19505674 -0.035239857 0.033759195 -0.14756739
000220 62 c3 c3 3b 09 f5 2a 3e 4c 6f 16 3e e1 87 3f 3e
       0.005974219 0.16695036 0.14690894 0.18704177
000230 2f 69 ad bd 2d 77 28 3e d1 74 c8 bd 16 d8 2d 3c
       -0.08467328 0.16451712 -0.09787906 0.010610601
000240 0c cd 67 bd 5d 90 05 be 2d 47 53 be 4e a3 0e be
       -0.056592032 -0.13043351 -0.2063262 -0.13929483
000250 b0 16 0d be 2f 1e d1 bd 32 ed 80 3d 05 05 a1 3d
       -0.13778186 -0.10210835 0.062952414 0.078622855
000260 c4 28 92 3b 57 25 4c 3d f8 23 b0 bd 52 ee 34 bc
       0.004460426 0.049840298 -0.086006105 -0.011043148
000270 6d b2 28 be 60 67 95 bd a5 db 22 3e c5 77 ad 3d
       -0.16474314 -0.07295108 0.159041 0.0847011
000280 d3 d0 e2 3d b7 9f 3e 3e 76 03 b9 bd 88 6f 70 3d
       0.11074986 0.18615614 -0.09033863 0.058700114
000290 1a c0 82 3d 02 0a 93 be 06 16 25 be 1c 91 b7 bc
       0.06384297 -0.28718573 -0.16121683 -0.02240806
0002a0 df 5e 16 3e db 06 ef 3b 58 8d b3 bc cb 92 30 bd
       0.14684628 0.0072945184 -0.021917984 -0.043108743
0002b0 03 2e a1 be f6 ee 73 be 3b 25 40 be b1 9a 41 3e
       -0.31480417 -0.23821625 -0.18764202 0.18906666
0002c0 1c 6f b9 3d c4 ed 6f 3e 33 00 81 3d 20 f6 46 3c
       0.090543956 0.23430544 0.06298866 0.012143642
0002d0 21 9e c8 3c 4f 76 8f bd 22 ec c4 bd f1 67 14 3d
       0.024489464 -0.070049874 -0.09615351 0.03623194
0002e0 f2 67 1e be 99 a8 01 3e 88 d2 0c 3e 2b e3 a9 bd
       -0.1546934 0.12661971 0.13752186 -0.08295282
0002f0 f4 e5 3e be f3 3f 5a be 90 cc 9a 3d 53 aa 12 be
       -0.18642408 -0.21313457 0.075585485 -0.14322786
000300 97 06 41 be 39 1f 0d be 09 01 40 bb d3 b4 70 be
       -0.1885017 -0.13781442 -0.0029297492 -0.23506479
000310 6c c2 68 be 26 59 28 be 03 e0 82 bd 03 b1 05 3e
       -0.22730416 -0.16440257 -0.06390383 0.13055806
000320 1c 8f d5 bd 65 fa 2a be 0b 16 40 bd fb 77 71 bd
       -0.104276866 -0.1669708 -0.04689602 -0.058952313
000330 84 7f 5a bd 41 4f ec 3d 7d 4b 6f bd 0f 22 eb 3d
       -0.053344265 0.11538554 -0.0584216 0.114811055
000340 1b b3 18 3e dd 9d b0 bd b5 92 f2 3c 34 c7 17 be
       0.14912073 -0.0862386 0.029610971 -0.14822084
000350 a2 0d 2b 3e e3 8a b2 3c 5e a8 6f 3c 7f 56 2b 3e
       0.1670442 0.021794742 0.014627544 0.16732214
000360 68 3f d3 3d e2 cc bb 3d 09 d0 8d bd a9 54 87 be
       0.10314828 0.09169938 -0.06924445 -0.26431778
000370 8e ab a5 3d 28 32 72 bd 70 d5 3f 3e 01 b9 94 3d
       0.08089362 -0.059129864 0.18733764 0.07261849
000380 6d 0a d0 bd 20 ea d1 3d 0e 5f 23 be cc 01 68 be
       -0.101582386 0.10249734 -0.15954229 -0.22656935
000390 cf b5 ef bd 77 e7 a9 3d 9c b1 2f 3e 10 f9 9f 3d
       -0.11704599 0.082961015 0.17157596 0.07811177
0003a0 53 d0 cd bd 7f 0e 0a be 67 a2 0a 3e c3 88 37 be
       -0.100495 -0.13482092 0.13538514 -0.17923264
0003b0 5e 23 83 3e c6 eb 38 3e 63 ca 00 be e2 7d 3e be
       0.2561292 0.1805869 -0.12577204 -0.18602708
0003c0 ae 0c 80 3d 2d f5 1a bc 61 b0 09 be 6e a7 69 3e
       0.062524185 -0.0094578685 -0.1344619 0.22817776
0003d0 de 6b 1c be 8a e1 3e be df df 2c 3e 96 0c d0 bc
       -0.15275523 -0.18640724 0.16882275 -0.025396626
0003e0 c4 8a 03 bd 9c c3 67 bd d3 51 98 be 23 10 11 bd
       -0.03211476 -0.056583032 -0.29749927 -0.03541578
0003f0 e3 50 84 bd 43 29 2a bd 30 66 aa 3d e3 16 4a be
       -0.064607404 -0.041543256 0.08320272 -0.19735293

layer1.0.bias f4 [16]
000000 da be d8 bd f1 67 f9 bd fb 0c ab 3d 4e 03 43 3e
       -0.10583277 -0.121780284 0.08352085 0.1904423
000010 81 9e a6 bd 82 33 3d be a0 58 f7 3d 16 c8 f9 bc
       -0.08135701 -0.1847668 0.12077451 -0.030490916
000020 f8 84 2d bc b1 3f d2 3c 41 93 d4 3c 50 ca e8 3d
       -0.010590784 0.025665136 0.025949122 0.11366713
000030 88 2b 4a be 99 73 d5 3d c4 c5 57 3d 57 66 4f bb
       -0.19743168 0.10422439 0.05267884 -0.0031646693

layer1.1.weight f4 [16]
000000 7b 72 47 3f 7a 91 85 3f 8c fa b6 3e ce c5 89 3e
       0.7790906 1.0435021 0.35738027 0.26908726
000010 56 fa 4f 3f 45 76 71 3f 91 b4 69 3f c4 91 47 3f
       0.8124136 0.9432109 0.9129115 0.77956796
000020 96 ae ed 3e f9 1a 11 3f 47 9c 43 3e d6 6e 97 3e
       0.4642226 0.5668178 0.19102584 0.2957675
000030 4b 51 10 3f a8 32 3b 3f 96 43 27 3f d7 d7 4c 3f
       0.56374043 0.7312417 0.653375 0.80016845

layer1.1.bias f4 [16]
000000 77 f6 26 be 09 dc 04 be 5c 4e 3c be cc 72 8e bd
       -0.16304956 -0.12974562 -0.18389267 -0.069554895
000010 86 91 19 be 7c 4f 2f be ae 52 57 be 7c 76 c5 bc
       -0.14996919 -0.17120165 -0.21027634 -0.02410435
000020 6b 96 64 be e0 1c 58 bd 33 c7 3f bd 4c 56 60 bd
       -0.22323005 -0.052761912 -0.04682083 -0.0547698
000030 62 8e c5 bd ee b7 47 be 5c 19 9e be f7 88 81 be
       -0.09646298 -0.19503757 -0.30878723 -0.25299808

layer1.1.running_mean f4 [16]
000000 34 f5 fc bd 08 ba 67 be 6f fa b2 3d e4 50 42 3e
       -0.12351456 -0.22629559 0.08739173 0.1897617
000010 06 b2 10 be 67 25 a0 be bc 85 03 3d bf aa 0d be
       -0.1413041 -0.31278536 0.03210996 -0.13834666
000020 d8 78 b9 3a 0e 59 bb bc a1 b4 6e bc 84 b3 d7 3d
       0.0014150394 -0.022869613 -0.0145694325 0.10532287
000030 27 ff 51 be 7b 06 6e 3d 22 da 6a 3e 32 93 df bd
       -0.20507489 0.05811165 0.22934774 -0.10916747

layer1.1.running_var f4 [16]
000000 a4 da ff 3c d2 e9 60 3d d5 a3 75 3c a8 7b 8e 3c
       0.031232186 0.05491049 0.014992674 0.017392948
000010 b5 03 d9 3c 4a ca 77 3d 05 3a 52 3d 63 92 f2 3d
       0.026491025 0.060495652 0.051324863 0.11844327
000020 6f 8d d1 3c 2d 51 9b 3c 15 57 85 3d 46 c1 9e 3c
       0.025580136 0.018959606 0.0651075 0.01937927
000030 4e 64 03 3d 3e 66 99 3d 91 b5 c5 3d c5 1f 3a 3d
       0.03207808 0.07490204 0.09653772 0.045440454

layer2.0.weight f4 [32, 16, 5, 5]
000000 a7 51 e3 bc 75 59 da bc c8 40 df 3c 02 05 f0 3d
       -0.027748896 -0.026653985 0.02725257 0.11719705
000010 7f 59 41 3d 06 df 91 3d 8b 95 44 3c 3f 13 2c bd
       0.04720449 0.071226165 0.011998544 -0.042010542
000020 64 d6 f5 3b 02 bf 8a bc 0c 8f 58 3d af 13 8f 3d
       0.007502364 -0.016936783 0.052870795 0.06986176
000030 bc 37 77 bc ec 37 c5 3d b3 24 aa bc 46 ca a4 bc
       -0.015088972 0.09629807 -0.020769453 -0.020115983
000040 ce 5a a4 bc cb 9c d3 3c ae 00 b6 3c 9b 62 41 3b
       -0.02006283 0.0258316 0.022217121 0.0029508236
000050 db 40 e7 3c 9a 5d 5b bc cc b3 88 bc 87 71 fb bb
       0.028229168 -0.013389016 -0.016687296 -0.0076734456
000060 64 0d 2b 3d be 69 dd 3d 9c e6 6d bd 55 3b 15 3c
       0.041760817 0.10811184 -0.058081254 0.009108384
000070 74 75 84 3d 3f d5 1f bc c9 d6 3f 3e 79 7c c0 3d
       0.06467715 -0.009755432 0.18734278 0.09398741
000080 b2 76 eb 3c 62 03 f9 3d 3c 2c 2a 3d 86 5a c4 3c
       0.028743122 0.12158848 0.04154609 0.023968946
000090 63 03 b9 3d f7 39 16 bd 57 88 84 bc 3f ca 04 bd
       0.09033849 -0.036676373 -0.016178293 -0.03241944
0000a0 a6 33 cf bc dd a2 b5 bc 61 05 90 3d 9a 49 6f bc
       -0.025293183 -0.022172386 0.07032276 -0.01460495
0000b0 97 d7 39 3c f9 5b c4 bd ca 41 3e bc 41 58 56 3a
       0.0113429045 -0.09587855 -0.011612365 0.0008176603
0000c0 85 16 52 bb 26 28 b6 bb b1 6d aa bd a1 bc e2 3c
       -0.003205688 -0.0055589853 -0.08321703 0.027677836
0000d0 bb c8 22 3d 35 42 c0 3d d6 7b 03 3e 8e 2c 34 bd
       0.039742213 0.09387628 0.12840208 -0.043987803
0000e0 a9 d0 e8 bc 75 25 83 3d 6b e5 42 3d 16 95 dc 3c
       -0.02841981 0.06403629 0.04758207 0.026926558
0000f0 83 d0 94 3d dd 07 42 3c 77 77 65 3b 40 ab 0f 3c
       0.07266333 0.011842695 0.0035013834 0.0087688565
000100 c2 6a 5f bd 98 26 d7 3b db 1f 46 3b a6 ee 87 bb
       -0.05454517 0.00656588 0.003023139 -0.004148322
000110 68 70 8f 3d 0d 0f 1d bd 58 23 e9 bc 46 9b 9b bc
       0.07003862 -0.03834443 -0.028459236 -0.018994939
000120 87 e4 51 bd 82 eb 0d 3c 9f 62 80 bc 54 fe b5 3c
       -0.05124333 0.0086621065 -0.015672026 0.022216
000130 5d 1b ad 3c cf 66 55 bc aa e9 4d 3d 42 a2 85 3d
       0.021131212 -0.013025 0.050271668 0.06525089
000140 9c 77 a6 3d df fd 8f bd 16 e3 f4 bd 0a d9 e6 bd
       0.081282824 -0.07030844 -0.11957376 -0.11271866
000150 b5 5c 5d bd 59 50 92 bd 6f 7e e7 bd d6 56 44 bd
       -0.05404349 -0.07144231 -0.11303412 -0.047934376
000160 15 76 a7 bd 9b 5f 11 be 89 00 02 be 0f 3c 9b bd
       -0.08176819 -0.14196627 -0.12695517 -0.07579815
000170 7a 20 37 bb c8 c7 d3 bd 2c 9a 8b bd 1a 2a 14 bc
       -0.0027942942 -0.103408396 -0.06816515 -0.009043241
000180 26 13 ab bd bb 9a 1e 3d 2c 14 05 bd f6 bc 3e 3c
       -0.08353262 0.03872178 -0.03248994 0.0116417315
000190 bb 27 7c 3c 4a 81 c8 bd dd 10 68 bd 7a 07 34 3d
       0.015390332 -0.09790285 -0.056656707 0.043952443
0001a0 6a 22 85 bd 35 82 34 3d 5a 7a c2 3c 0f 07 a1 bc
       -0.065007046 0.044069488 0.023739982 -0.019656686
0001b0 4a 23 25 bd 5d 93 ae bd 1d 41 1c bc b9 d6 be 3d
       -0.040316857 -0.08524201 -0.009537009 0.09318299
0001c0 22 24 f1 3c 63 d6 e9 bc 67 8e 91 bd ce bc 44 bc
       0.029436175 -0.02854461 -0.07107239 -0.012007905
0001d0 1b dc 07 bd 5d 6d 40 3d 58 24 b9 3c 8a 9e b8 3c
       -0.033168893 0.046979297 0.022600338 0.022536535
0001e0 c7 fe 3c bd c6 40 d4 bd 4b 8c 7c 3c bf 71 94 3c
       -0.046141412 -0.10363917 0.015414308 0.018120645
0001f0 b6 05 1e bd e5 30 1c bd dd d5 89 3d b1 b2 7f bd
       -0.038579665 -0.038132567 0.06730244 -0.062426273
000200 b0 79 04 be 4c ea 98 3b 52 03 ce bd 3c 9f f6 bc
       -0.12937045 0.0046666022 -0.10059227 -0.030105226
000210 04 16 22 3c da 0c b9 bd f3 72 2b bc 75 7d b7 bd
       0.009892944 -0.09035654 -0.010464418 -0.08959476
000220 5f e4 5c bd 80 9b b8 bd bf 32 3a bd c6 a7 b3 3b
       -0.05392873 -0.09014034 -0.04545855 0.0054826466
000230 92 5d df 3c f3 d0 61 3b a2 af db bc 35 18 a7 bc
       0.027266297 0.0034456819 -0.026817147 -0.020397285
000240 e1 00 6e 3d d1 f7 96 bc 79 ae e0 bc 38 3b c9 3d
       0.058106307 -0.018428715 -0.027426945 0.09825748
000250 e3 4a 4d 3d 5c a7 0c bd a6 15 0d 3d 66 19 43 bd
       0.050120246 -0.034339294 0.034444474 -0.047631644
000260 d5 b4 c0 3d 94 2e 8f 3d e8 f0 b3 3d 6f f0 00 3d
       0.09409491 0.06991306 0.087861836 0.031479295
000270 d3 a6 21 3d 74 b8 bf bc 2b 1c 8c bb f4 50 8d 3c
       0.039465737 -0.023403384 -0.004275819 0.017250516
000280 af a1 41 3d f5 e5 42 bd 18 02 63 3c 41 9d 06 bd
       0.047273334 -0.047582585 0.01385548 -0.032864813
000290 a2 b4 be bc 23 35 a4 bd f9 c3 10 bd 0a a8 85 bd
       -0.023279492 -0.080179475 -0.035343144 -0.065261915
0002a0 c9 6f c5 bc d4 0d 54 3d b0 70 09 3d 05 a7 5a bd
       -0.024101155 0.051771 0.033554733 -0.05338194
0002b0 92 d0 2d 3b 6b 5c 31 3d c9 d4 9c 3b c9 85 51 3d
       0.0026522023 0.043301027 0.004786108 0.051152978
0002c0 7f 9c 82 3d 27 29 7a bc c4 f3 26 3c 27 f3 f4 3d
       0.063775055 -0.015268601 0.010189954 0.1196044
0002d0 fd a4 30 bd 41 cb 90 bd 6d 7d 24 bd 05 df 16 3b
       -0.043126095 -0.070700176 -0.040158678 0.0023021114
0002e0 b7 d1 e5 bc 89 ed 24 3d 1a 3e 68 bd 9d 14 80 bb
       -0.028054101 0.040265594 -0.05669985 -0.0039087073
0002f0 84 35 19 3d 36 6d 56 bd 46 83 82 3d 47 b1 01 bd
       0.037404552 -0.052350245 0.06372695 -0.031663205
000300 44 8b 6b bd 01 91 7c 3d cd 1e 01 3d 2b d6 0f 3d
       -0.05750586 0.061661724 0.031523515 0.035116356
000310 23 a7 e1 3c 61 3e cb 3a c4 64 91 3c fe 99 da 3b
       0.027545517 0.0015506261 0.017748244 0.0066711893
000320 cf 5a 20 3d 53 d8 8c 3c de 84 ac 3c 78 84 a7 bd
       0.0391491 0.017192995 0.02105945 -0.08179563
000330 3d 56 96 bc 4d 48 04 3c 8f 54 5a bd ed 9d 9c bc
       -0.018351668 0.0080738785 -0.053303298 -0.019118274
000340 ca 0e d3 3b 07 65 f1 bc 20 6e 89 3d 2c 5b 47 3d
       0.006440972 -0.029467119 0.06710458 0.048670933
000350 67 18 3e 3d ca 34 db bc 7f a6 27 bd 84 38 2d 3c
       0.04640999 -0.02675857 -0.040930267 0.010572556
000360 bf bf 06 3c b8 15 97 3d 6b b9 ae bc 9d b2 6f 3c
       0.008224427 0.073771894 -0.021328649 0.014629987
000370 64 f2 42 3d e5 1b c1 3c 8d 9e 43 3c 44 e0 f5 bc
       0.047594443 0.023572871 0.011939657 -0.030014165
000380 a8 3e c2 bc 64 86 11 be d8 a3 72 bb 54 6f 89 3d
       -0.023711517 -0.14211422 -0.0037023928 0.06710687
000390 e9 c5 c0 bc a5 d6 df bb 59 d8 8a bc 85 15 20 bd
       -0.02353187 -0.0068310075 -0.016948866 -0.039083023
0003a0 a6 a2 db 3d f7 f8 b7 3d 4d b5 16 bd a8 e1 bd 3d
       0.10724382 0.08983033 -0.036793996 0.09271556
0003b0 5b 17 3f bc 5c 80 28 39 ed 3c 57 bd 83 be c0 bd
       -0.011663283 0.00016069546 -0.052548338 -0.09411337
0003c0 86 ce 62 3d b0 99 5b bd 23 81 f3 bd a3 95 96 bc
       0.055372737 -0.053613365 -0.11889865 -0.0183819
0003d0 f1 ba 37 bb e0 b4 bd bd ad db 12 3c 23 79 34 3c
       -0.002803501 -0.09263015 0.008963508 0.011015209
0003e0 5d 75 c0 bb 1e 58 e6 3c 71 6e 00 3e e1 62 a6 bb
       -0.005873366 0.02811819 0.1254213 -0.0050777053
0003f0 95 64 01 be ff af 1c bc e9 eb af 3c fa dc 58 bd
       -0.12636025 -0.009563445 0.021474795 -0.052945115

layer2.0.bias f4 [32]
000000 fa e3 04 3d b5 53 ea 3c 0f 7d 16 bd c8 15 24 3a
       0.032443978 0.028604368 -0.03674036 0.0006259349
000010 41 ab 77 bc 92 c5 c7 bc 03 6c 50 3d 5c a3 c4 bc
       -0.015116514 -0.024386201 0.050884258 -0.024003677
000020 c2 bf 3e 3c 51 08 5f bd ee ff 39 3d af 4a 09 bd
       0.011642398 -0.05445129 0.04541009 -0.03351849
000030 27 70 9f bc e2 9e 00 3d 27 fe 94 bb f9 76 82 3c
       -0.019462658 0.031401522 -0.004546899 0.015925871
000040 ee 1d 20 bd 65 d8 38 3d 66 df f4 bc 3c f8 85 bc
       -0.039091043 0.045128245 -0.02989168 -0.016353719
000050 58 8f c1 bc 64 a2 96 bd 24 de 46 3c 59 8a 65 bd
       -0.023627922 -0.07355192 0.012137923 -0.05604014
000060 6d cf 93 3c 4b b6 5f 3d 31 cf 5f bc 64 65 30 3d
       0.018043244 0.054617207 -0.013660238 0.043065444
000070 cf 60 30 3d b3 49 bc bc 19 67 d9 3c 96 60 54 3d
       0.043061074 -0.022984361 0.026538419 0.051849924

layer2.1.weight f4 [32]
000000 91 bc 36 3f 1b ed 2d 3f 70 e6 9a 3f c2 ac 25 3f
       0.7138148 0.6793992 1.2101574 0.6471673
000010 3e 9b 9e 3f 52 e5 94 3e d8 94 02 3f cb 52 0b 3f
       1.2391126 0.29081208 0.5100837 0.5442321
000020 d5 bd 16 3f b7 09 32 3f af 20 3f 3f e1 96 ca 3e
       0.5888341 0.69546074 0.74659246 0.39568236
000030 82 40 11 3f 2a a8 78 3f 41 f6 01 3f b1 e2 89 3f
       0.56739056 0.971316 0.5076638 1.0772306
000040 14 c9 ba 3e ed 2d 3a 3f 7d b7 0c 3f 1e b1 58 3f
       0.36481535 0.7272633 0.5496748 0.8464526
000050 00 39 25 3f d9 db 46 3f aa d3 93 3f 67 0c 92 3f
       0.645401 0.7767921 1.154897 1.1410035
000060 3f fe c1 3e 62 21 2d 3f 01 00 81 3f 9b f9 be 3e
       0.37889287 0.67629063 1.0078126 0.3729981
000070 7f 61 9a 3f 3e 10 3a 3f 51 1e 07 3f 5f 8e 73 3f
       1.2061003 0.72681034 0.52780634 0.95139116

layer2.1.bias f4 [32]
000000 b1 4b fe bc 7c cd 9e bd 13 9f 8f bc 5b f8 3b bc
       -0.031041952 -0.07754037 -0.017531907 -0.011472787
000010 45 45 a2 3c 34 c3 7b bd 83 44 46 bd 96 77 80 bd
       0.01980842 -0.061465457 -0.04840518 -0.06272809
000020 50 ce de bc 82 92 77 bc 34 a7 24 bd d9 ca 1b bd
       -0.027197987 -0.015110614 -0.04019852 -0.038035247
000030 0d 29 f8 bd 0d ad 87 bd 4a 7a 8d bd 47 5a 18 bd
       -0.12117205 -0.06624804 -0.069080904 -0.03719547
000040 8b 25 a1 bd 49 e1 83 bd 80 7e 91 bd 6f 16 79 bd
       -0.07868489 -0.06439454 -0.07104206 -0.06081241
000050 8a 63 7a bd bd ba 61 bd 19 57 b3 bd ef e0 a5 bd
       -0.061130084 -0.055109728 -0.08756847 -0.08099543
000060 ef 72 a7 bd f8 e7 b1 bd d7 26 21 bd 7a b1 92 bc
       -0.08176219 -0.08686823 -0.03934368 -0.017906893
000070 bb 4d 82 bd af 92 aa bd 92 0f 47 bd c0 60 cf 3c
       -0.06362482 -0.08328759 -0.048598833 0.025314689

layer2.1.running_mean f4 [32]
000000 8d 5a ec bd d6 0e c8 bc 9b 97 16 be 83 d0 09 3e
       -0.11540709 -0.024421137 -0.1470627 0.13458447
000010 6c be 6e be b9 1e 40 3e 62 28 16 3f 27 15 80 3e
       -0.23314828 0.1876172 0.5865537 0.25016138
000020 49 9a 69 be 8d 7f 81 3e 83 eb a9 3e 22 2a 9b be
       -0.22812761 0.25292626 0.33187494 -0.30305582
000030 a5 b1 b6 be 78 5c c4 3c 1f a9 83 be 69 de 4f be
       -0.35682407 0.023969874 -0.25714967 -0.20299686
000040 77 30 04 bd 8c cf 5a be 27 7b a3 3e b7 84 9b be
       -0.032272782 -0.21368235 0.31929895 -0.3037469
000050 f7 b1 01 be 82 22 04 3f 01 61 93 be 0e 2b e2 bd
       -0.12665544 0.51615155 -0.28784946 -0.11043368
000060 72 03 22 be 60 63 1c be c4 ff 0d 3e cc ac 30 3f
       -0.15821627 -0.15272284 0.13867098 0.6901367
000070 ca 97 70 3d df f1 49 3d e6 eb 8f 3e bb 3b 05 3f
       0.058738507 0.049302932 0.28109664 0.52044266

layer2.1.running_var f4 [32]
000000 37 9e 7b 3e 48 6b 34 3e ac 4c 8a 3e 71 39 97 3e
       0.24572073 0.1761905 0.2701162 0.29536012
000010 44 bd 63 3e 77 0a aa 3e 8e d5 b7 3e 44 24 83 3e
       0.22240168 0.3321111 0.35905117 0.25613606
000020 4d 48 9c 3e cd 2e ae 3e 2a cc 5f 3e a7 82 4d 3e
       0.3052391 0.3402008 0.21855226 0.20069371
000030 34 ba 7b 3e 94 22 ac 3e 74 3b d6 3e 03 ee 9e 3e
       0.2458275 0.3362013 0.41842234 0.31040964
000040 50 28 93 3e db e9 a6 3e f0 a8 8e 3e db e3 b2 3e
       0.28741693 0.32600293 0.27863264 0.34939465
000050 91 5b 48 3e d0 8a 8e 3e 20 9f 95 3e 98 05 51 3e
       0.1956618 0.2784028 0.29222965 0.2041229
000060 c4 b7 ae 3e 2f d9 ac 3e c1 b3 8d 3e d3 da c1 3e
       0.34124577 0.33759448 0.27676204 0.37862262
000070 46 af 2c 3e 45 36 ad 3e 81 b8 71 3e 40 81 6c 3e
       0.16863737 0.33830467 0.23605539 0.2309618

fc.weight f4 [10, 1568]
000000 3e 31 5f 3c 39 8a 95 bd e6 b9 d3 bc 77 a0 dd bc
       0.01362258 -0.073017545 -0.02584548 -0.027054055
000010 68 04 09 3c 3c 82 79 bd 20 e7 ef bc 19 37 38 3d
       0.008362867 -0.060915217 -0.029285014 0.04497442
000020 82 be 9a bb 39 ac ba bc 83 61 64 3c 3e ed 4f 3d
       -0.0047224173 -0.0227872 0.013939264 0.05076336
000030 c8 46 12 3d 27 8c 5d bc 48 07 69 bd 92 c2 90 bd
       0.035712034 -0.013522184 -0.05689171 -0.07068361
000040 82 ec 3b bd 15 62 c8 bc 0e 92 b3 3c d4 3b 05 3e
       -0.04587985 -0.024460832 0.02192023 0.13011104
000050 61 7b 0e 3d 98 79 da bd 3f cf 11 be 7a dd 3a be
       0.034785632 -0.106677234 -0.14239214 -0.18248549
000060 ee 8f bb bd b5 3a ee 3c 74 42 3f 3d c7 57 d7 3c
       -0.09158312 0.029080728 0.046694234 0.026286973
000070 11 63 d1 bd 17 85 a0 bd e1 a0 cf 3c fd 32 05 bc
       -0.102239735 -0.07837885 0.025345268 -0.008129832
000080 53 07 41 3c 9f 81 aa 3c a9 a2 8f bd 70 d6 14 bd
       0.011781531 0.020813761 -0.07013447 -0.036337316
000090 cc cf 6d bd 24 af ea 3c bc 87 5d 3d 3e 16 14 bc
       -0.0580595 0.028647967 0.054084525 -0.009038506
0000a0 35 ff 15 be 2b ba fc bd 93 83 09 3c 36 03 e4 3c
       -0.14648135 -0.12340196 0.008393186 0.027833562
0000b0 1f 72 6d 3d 2a 19 61 3d f9 2e 75 bd 78 e6 7d be
       0.057970162 0.05495564 -0.05985925 -0.24794948
0000c0 03 a0 0d bd 6f 6d a9 bc e5 66 6b bd a4 90 15 3a
       -0.034576427 -0.020682065 -0.057471175 0.0005705452
0000d0 f8 9b 27 bd c8 6f 56 bd b6 34 80 bd 33 90 92 bb
       -0.040920228 -0.052352697 -0.06260054 -0.0044727563
0000e0 25 9d 03 bd 12 ff 8a bd 9d a6 99 3c 95 50 13 bd
       -0.032132287 -0.06786932 0.018756205 -0.03596552
0000f0 fa c9 45 bd 96 eb 02 bb c8 e0 d9 3d a7 1d 3d bd
       -0.048288323 -0.0019976846 0.10638577 -0.046170857
000100 62 0e e6 bc f2 05 5b bc 34 a2 46 bd 49 80 04 3d
       -0.02808303 -0.013368117 -0.048494533 0.032348905
000110 41 11 80 bb 8f e8 9e 3d 9b cf 18 be 2d 46 10 be
       -0.003908307 0.07759201 -0.14922945 -0.1408927
000120 0a 66 f8 3b 81 59 4f 3c 3e fa 93 3d ad 26 76 bd
       0.0075805234 0.012655617 0.07225464 -0.060095478
000130 b8 6d e4 3c 1e a9 86 bd d2 fe 48 bd 18 ff 0b 3d
       0.02788435 -0.06575225 -0.04907114 0.034178823
000140 b7 25 cd bb a6 e9 9d bd be 12 c6 bd de 29 50 bb
       -0.0062605995 -0.077105805 -0.096715435 -0.0031763236
000150 7e c8 12 3d 36 42 82 3c 78 50 47 bb fc 2a 73 bd
       0.035835735 0.015900712 -0.0030412953 -0.059367165
000160 be 26 88 bc e0 76 7d bd 4f 4f 97 3d 4e 1e d0 3c
       -0.016620036 -0.061880946 0.07388174 0.025405075
000170 e4 a5 86 3d 0e 16 75 3d e9 99 40 bd e6 7e 49 bd
       0.0657461 0.059835486 -0.04702178 -0.049193285
000180 40 0d 92 bc 33 9f 58 ba 60 7b 29 bc 3c c6 db bc
       -0.017828584 -0.00082634686 -0.010344356 -0.026827924
000190 58 b8 85 bc 59 71 4d 3c 66 8b 17 3b f8 fb fd 3c
       -0.016323254 0.012539231 0.002312386 0.031003937
0001a0 43 b2 81 3c 0e 22 30 bc 01 f0 99 bc 9a 5f 8d 3c
       0.015832072 -0.010750307 -0.0187912 0.0172575
0001b0 ea 27 89 bd 80 06 73 bd 1b 6e e3 bc 37 06 b2 bd
       -0.06697066 -0.05933237 -0.027762463 -0.08692592
0001c0 21 70 eb bc 34 27 ff bc 03 ec 61 bd 3a e2 4f be
       -0.02873999 -0.031146623 -0.05515672 -0.20301142
0001d0 24 84 f9 3c e1 14 9f 3d 5e 31 f8 bc ea b4 ba 3c
       0.030458517 0.07767654 -0.030296978 0.022791345
0001e0 ab aa 8e 3d c5 a2 13 3d de e2 3e be d6 1a 2a ba
       0.06966146 0.0360439 -0.1864123 -0.0006488984
0001f0 df 66 f6 3c 95 34 93 bc 6b 8b 2f bb ae 57 4c bc
       0.03007835 -0.017969409 -0.002678598 -0.012472076
000200 a7 e0 68 3d 0e cb a4 3c d1 a4 cd bd 03 fe 90 bd
       0.05685487 0.020116355 -0.10041202 -0.07079699
000210 88 32 02 bd cb ca 23 bd 28 78 29 bc 12 34 96 3d
       -0.03178647 -0.03998832 -0.010343589 0.073341504
000220 73 8c 0b 3e 2f cf 96 be 14 92 06 be 51 74 ef ba
       0.13627796 -0.29454944 -0.13141662 -0.0018268918
000230 38 50 29 bc 96 64 21 bc 72 1f c5 bd d9 08 75 3c
       -0.010334067 -0.009850642 -0.09625138 0.014955723
000240 e2 08 98 bd aa 32 d6 39 66 40 00 3d ef a9 36 3d
       -0.07423569 0.00040855008 0.031311415 0.044595655
000250 f2 80 a0 3c 46 f5 f7 bc 25 11 56 bd c1 5e 2a bd
       0.019592736 -0.030268323 -0.052262444 -0.04159427
000260 d3 c9 a9 3c 01 b4 83 3a ee f8 a0 bc 77 fe ac bd
       0.02072612 0.0010048152 -0.019649949 -0.08446973
000270 9a 06 d1 bd 5a aa 8e 3c 52 57 06 be f9 a7 72 3b
       -0.10206337 0.017415214 -0.13119248 0.003702639
000280 ce a8 9a bc 23 ad 27 bd ef f5 4f 3b 5e ad 41 3c
       -0.01887932 -0.0409366 0.0031732281 0.011821119
000290 d3 99 12 3d da 6a a7 bd 9e 74 be bd 25 2a b6 3c
       0.03579123 -0.08174677 -0.09299587 0.022236893
0002a0 be f0 70 bb e7 4c 00 bc de 97 0e 3e 2d 32 de 3d
       -0.0036764587 -0.007830835 0.1392512 0.10849414
0002b0 81 cb e9 bd c1 fc 34 3c a8 9e 69 3d f0 05 32 bc
       -0.114157684 0.011046589 0.057036072 -0.010865673
0002c0 82 c8 f6 3d d4 84 11 3e 12 4a 7d bd 03 25 f6 3c
       0.120499626 0.14210826 -0.061838217 0.030046945
0002d0 fb d5 94 3d ff c1 e7 3d b7 9f ce bc af 74 32 3d
       0.07267376 0.11316299 -0.025222642 0.04356831
0002e0 a2 c9 bd bd a0 ef f5 3c 08 0a 11 3c 4e 37 b4 3d
       -0.09266974 0.030021489 0.008852489 0.08799611
0002f0 bd 49 12 3d 11 b4 ee 3a 1c f9 12 bd f5 7c 80 be
       0.035714854 0.0018211623 -0.0358821 -0.25095335
000300 f4 06 3f be dd f5 cd bd 8e c7 9a bc 9b c8 0a 3c
       -0.18654996 -0.1005666 -0.018893983 0.00847068
000310 27 ae d9 ba 19 83 08 bc 5b d2 58 bd 61 03 d9 3b
       -0.0016607688 -0.008332037 -0.052934986 0.0066227173
000320 a8 26 1a bd d1 dc 0c 3d 00 29 4f 3c 2c ef c0 bc
       -0.03763452 0.034390274 0.0126440525 -0.023551546
000330 59 84 9e bc ca 1c 86 bd 3c e6 3a 3c 8b b3 62 3d
       -0.019350218 -0.0654846 0.011407431 0.055347007
000340 a5 41 c5 3d 0e d1 bc 3d f1 41 f1 3c b8 ff 41 3d
       0.09631661 0.092195615 0.029450389 0.047363013
000350 3e 66 02 3d c8 39 5d bb 30 30 b9 3d 6c 03 9d 3d
       0.031835787 -0.0033756364 0.09042394 0.07666668
000360 b2 12 42 3d 6d e5 f1 3c 03 91 b1 3d 33 9f a1 3d
       0.04738111 0.029528344 0.08670237 0.07891693
000370 04 49 b4 3c 28 a7 9e bd 24 51 1f 3d 8e c5 92 bd
       0.022007473 -0.07746726 0.03889574 -0.07166587
000380 c2 17 46 3d 06 69 84 3d ef c7 c4 3d 04 a5 4b bb
       0.0483625 0.06465344 0.09608447 -0.0031073699
000390 26 ae a1 bd 78 b1 93 bd 63 26 b1 bd 47 70 b3 bc
       -0.07894544 -0.07211584 -0.086499 -0.021904124
0003a0 31 5d aa 3d 38 ea 50 3d 5c 10 3d be 6d 36 92 bd
       0.08318556 0.05100462 -0.18463272 -0.07139287
0003b0 93 8b 62 bd 20 db 11 bd f0 4b 9d bc d5 ff 4f bd
       -0.05530889 -0.035609365 -0.019201249 -0.05078109
0003c0 57 46 82 be 36 46 2a be 97 f1 af bd 3e a8 4e 3d
       -0.2544429 -0.16628346 -0.085910015 0.050453417
0003d0 df 29 0f 3d 67 a5 a9 bd 6f c9 fd bc be 67 97 bd
       0.03495204 -0.08283501 -0.03097984 -0.07392834
0003e0 35 8a 1e bd f0 57 62 bd 1c a2 cb bd e0 32 77 bd
       -0.038706023 -0.055259645 -0.09943029 -0.060351253
0003f0 65 0f 09 3e f9 62 80 3c e4 b4 a5 3b ff e4 c4 bd
       0.13384779 0.015672194 0.0050569642 -0.0961399

fc.bias f4 [10]
000000 f1 e0 f1 3c 0e f8 29 3d 2f 61 a0 bc 8e ca 82 3b
       0.029526206 0.04149633 -0.01957759 0.0039914316
000010 96 2a a9 bc cc 50 d3 3c fa 1a 08 3c c8 fc 32 bc
       -0.02065019 0.025795363 0.008307213 -0.010924526
000020 6a c8 43 bd 39 4e 96 bc
       -0.04779855 -0.018347846
